…
    "device = torch.device('cuda' if torch.cuda.is_available() else 'cpu')\n",
    "train_iter = data.BucketIterator(\n",
    "        trainset, batch_size=BATCH_SIZE,\n",
    "        shuffle=True, repeat=False, sort=False, device = device)"
   ]
  },
  {
   "cell_type": "code",
   "execution_count": 21,
   "metadata": {},
   "outputs": [
    {
     "output_type": "stream",
     "name": "stdout",
     "text": [
      "89312\n"
     ]
    },
    {
     "output_type": "execute_result",
     "data": {
      "text/plain": [
       "transformer(\n",
       "  (enc_outputs): Encoder(\n",
       "    (embb): Embedding(89312, 128)\n",
       "    (dropout_1): Dropout(p=0.3, inplace=False)\n",
       "    (PE): PositionalEncoder()\n",
       "    (encoder_block): EncoderBlock(\n",
       "      (attn): MultiheadAttention(\n",
       "        (q_linear): Linear(in_features=128, out_features=128, bias=True)\n",
       "        (v_linear): Linear(in_features=128, out_features=128, bias=True)\n",
       "        (k_linear): Linear(in_features=128, out_features=128, bias=True)\n",
       "        (out): Linear(in_features=128, out_features=128, bias=True)\n",
       "      )\n",
       "      (dropout_1): Dropout(p=0.3, inplace=False)\n",
       "      (norm_1): LayerNorm((128,), eps=1e-05, elementwise_affine=True)\n",
       "      (ff): FeedForward(\n",
       "        (linear_1): Linear(in_features=128, out_features=512, bias=True)\n",
       "        (linear_2): Linear(in_features=512, out_features=128, bias=True)\n",
       "      )\n",
       "      (dropout_2): Dropout(p=0.3, inplace=False)\n",
       "      (norm_2): LayerNorm((128,), eps=1e-05, elementwise_affine=True)\n",
       "    )\n",
       "  )\n",
       "  (dec_outputs): Decoder(\n",
       "    (embb): Embedding(89312, 128)\n",
       "    (dropout_1): Dropout(p=0.3, inplace=False)\n",
       "    (PE): PositionalEncoder()\n",
       "    (decoder_block): DecoderBlock(\n",
       "      (attn): MultiheadAttention(\n",
       "        (q_linear): Linear(in_features=128, out_features=128, bias=True)\n",
       "        (v_linear): Linear(in_features=128, out_features=128, bias=True)\n",
       "        (k_linear): Linear(in_features=128, out_features=128, bias=True)\n",
       "        (out): Linear(in_features=128, out_features=128, bias=True)\n",
       "      )\n",
       "      (attn_2): MultiheadAttention(\n",
       "        (q_linear): Linear(in_features=128, out_features=128, bias=True)\n",
       "        (v_linear): Linear(in_features=128, out_features=128, bias=True)\n",
       "        (k_linear): Linear(in_features=128, out_features=128, bias=True)\n",
       "        (out): Linear(in_features=128, out_features=128, bias=True)\n",
       "      )\n",
       "      (dropout_1): Dropout(p=0.3, inplace=False)\n",
       "      (norm_1): LayerNorm((128,), eps=1e-05, elementwise_affine=True)\n",
       "      (ff): FeedForward(\n",
       "        (linear_1): Linear(in_features=128, out_features=512, bias=True)\n",
       "        (linear_2): Linear(in_features=512, out_features=128, bias=True)\n",
       "      )\n",
       "      (dropout_2): Dropout(p=0.3, inplace=False)\n",
       "      (dropout_3): Dropout(p=0.3, inplace=False)\n",
       "      (norm_2): LayerNorm((128,), eps=1e-05, elementwise_affine=True)\n",
       "      (norm_3): LayerNorm((128,), eps=1e-05, elementwise_affine=True)\n",
       "    )\n",
       "  )\n",
       "  (output): Linear(in_features=128, out_features=89312, bias=True)\n",
       "  (softmax): LogSoftmax(dim=-1)\n",
       ")"
      ]
     },
     "metadata": {},
     "execution_count": 21
    }
   ],
   "source": [
    "# model\n",
    "print(text_embedding_vectors)\n",
    "net = transformer(text_embedding_vectors = text_embedding_vectors, \n",
    "                  vocab_size=VOCAB_SIZE, num_layers=NUM_LAYERS, d_ff=D_FF, d_model=D_MODEL, \n",
…
